…
omplete architecture works will be part of the following tutorial, where I will show in more detail how the code works. But for now, let&#39;s see how the final architecture of the model looks like: . . output_shapes = [128, 32, 64] kernels_shape = [28, 14, 5] strides = [7, 7, 2] model = Classifier_CNN(nn.Sequential( *get_cnn_layers(raw_feat, output_shapes, kernels_shape, strides) ), emb_dims, num_classes).to(device) opt = optim.Adam(model.parameters(), lr=0.01) loss_func = nn.CrossEntropyLoss() . This is how the CNN-Part from our model looks like: . model.raw . Sequential( (0): Sequential( (0): Conv1d(1, 128, kernel_size=(28,), stride=(7,)) (1): BatchNorm1d(128, eps=1e-05, momentum=0.1, affine=True, track_running_stats=True) (2): ReLU() ) (1): Sequential( (0): Conv1d(128, 32, kernel_size=(14,), stride=(7,)) (1): BatchNorm1d(32, eps=1e-05, momentum=0.1, affine=True, track_running_stats=True) (2): ReLU() ) (2): Sequential( (0): Conv1d(32, 64, kernel_size=(5,), stride=(2,)) (1): BatchNorm1d(64, eps=1e-05, momentum=0.1, affine=True, track_running_stats=True) (2): ReLU() ) (3): MaxPool1d(kernel_size=2, stride=4, padding=0, dilation=1, ceil_mode=False) (4): Flatten() (5): Dropout(p=0.5, inplace=False) (6): Linear(in_features=64, out_features=64, bias=True) (7): ReLU(inplace=True) (8): Dropout(p=0.5, inplace=False) (9): Linear(in_features=64, out_features=64, bias=True) (10): ReLU(inplace=True) ) . And this is how the embedding part looks like: . model.embeddings . ModuleList( (0): Embedding(2, 5) (1): Embedding(2, 5) ) . A pretty neat technique of how to enhance a class with different behaviour is called a Callback. For example, we can use a function to calculate the best learning rate, and use a Callback to use our model with it. Again, how this exactly works will be covered in the next tutorial: . learn = Learner(model, opt, loss_func, data) run = Runner(cb_funcs=[LR_Find, Recorder]) run.fit(1000, lear
…
